…
 block2a_expand_activation (Act  (None, 190, 190, 14  0          ['block2a_expand_bn[0][0]']      
 ivation)                       4)                                                                
                                                                                                  
 block2a_dwconv_pad (ZeroPaddin  (None, 191, 191, 14  0          ['block2a_expand_activation[0][0]
 g2D)                           4)                               ']                               
                                                                                                  
 block2a_dwconv (DepthwiseConv2  (None, 95, 95, 144)  1296       ['block2a_dwconv_pad[0][0]']     
 D)                                                                                               
                                                                                                  
 block2a_bn (BatchNormalization  (None, 95, 95, 144)  576        ['block2a_dwconv[0][0]']         
 )                                                                                                
                                                                                                  
 block2a_activation (Activation  (None, 95, 95, 144)  0          ['block2a_bn[0][0]']             
 )                                                                                                
                                                                                                  
 block2a_se_squeeze (GlobalAver  (None, 144)         0           ['block2a_activation[0][0]']     
 agePooling2D)                                                                                    
                                                                                                  
 block2a_se_reshape (Reshape)   (None, 1, 1, 144)    0           ['block2a_se_squeeze[0][0]']     
                                                                                                  
 block2a_se_reduce (Conv2D)     (None, 1, 1, 6)      870         ['block2a_se_reshape[0][0]']     
                                                                                                  
 block2a_se_expand (Conv2D)     (None, 1, 1, 144)    1008        ['block2a_se_reduce[0][0]']      
                                                                                                  
 block2a_se_excite (Multiply)   (None, 95, 95, 144)  0           ['block2a_activation[0][0]',     
                                                                  'block2a_se_expand[0][0]']      
                                                                                                  
 block2a_project_conv (Conv2D)  (None, 95, 95, 32)   4608        ['block2a_se_excite[0][0]']      
                                                                                                  
 block2a_project_bn (BatchNorma  (None, 95, 95, 32)  128         ['block2a_project_conv[0][0]']   
 lization)                                                                                        
                                                                                                  
 block2b_expand_conv (Conv2D)   (None, 95, 95, 192)  6144        ['block2a_project_bn[0][0]']     
                                                                                                  
 block2b_expand_bn (BatchNormal  (None, 95, 95, 192)  768        ['block2b_expand_conv[0][0]']    
 ization)                                                                                         
                                                                                                  
 block2b_expand_activation (Act  (None, 95, 95, 192)  0          ['block2b_expand_bn[0][0]']      
 ivation)                                                                                         
                                                                                                  
 block2b_dwconv (DepthwiseConv2  (None, 95, 95, 192)  1728       ['block2b_expand_activation[0][0]
 D)                                                              ']                               
                                                                                                  
 block2b_bn (BatchNormalization  (None, 95, 95, 192)  768        ['block2b_dwconv[0][0]']         
 )                                                                                                
                                                                                                  
 block2b_activation (Activation  (None, 95, 95, 192)  0          ['block2b_bn[0][0]']             
 )                                                                                                
                                                                                                  
 block2b_se_squeeze (GlobalAver  (None, 192)         0           ['block2b_activation[0][0]']     
 agePooling2D)                                                                                    
                                                                                                  
 block2b_se_reshape (Reshape)   (None, 1, 1, 192)    0           ['block2b_se_squeeze[0][0]']     
                                                                                                  
 block2b_se_reduce (Conv2D)     (None, 1, 1, 8)      1544        ['block2b_se_reshape[0][0]']     
                                                                                                  
 block2b_se_expand (Conv2D)     (None, 1, 1, 192)    1728        ['block2b_se_reduce[0][0]']      
                                                                                                  
 block2b_se_excite (Multiply)   (None, 95, 95, 192)  0           ['block2b_activation[0][0]',     
                                                                  'block2b_se_expand[0][0]']      
                                                                                                  
 block2b_project_conv (Conv2D)  (None, 95, 95, 32)   6144        ['block2b_se_excite[0][0]']      
                                                                                                  
 block2b_project_bn (BatchNorma  (None, 95, 95, 32)  128         ['block2b_project_conv[0][0]']   
 lization)                                                                                        
                                                                                                  
 block2b_drop (Dropout)         (None, 95, 95, 32)   0           ['block2b_project_bn[0][0]']     
                                                                                                  
 block2b_add (Add)              (None, 95, 95, 32)   0           ['block2b_drop[0][0]',           
                                                                  'block2a_project_bn[0][0]']     
                                                                                                  
 block2c_expand_conv (Conv2D)   (None, 95, 95, 192)  6144        ['block2b_add[0][0]']            
                                                                                                  
 block2c_expand_bn (BatchNormal  (None, 95, 95, 192)  768        ['block2c_expand_conv[0][0]']    
 ization)                                                                                         
                                                                                                  
 block2c_expand_activation (Act  (None, 95, 95, 192)  0          ['block2c_expand_bn[0][0]']      
 ivation)                                                                                         
                                                                                                  
 block2c_dwconv (DepthwiseConv2  (None, 95, 95, 192)  1728       ['block2c_expand_activation[0][0]
 D)                                                              ']                               
                                                                                                  
 block2c_bn (BatchNormalization  (None, 95, 95, 192)  768        ['block2c_dwconv[0][0]']         
 )                                                                                                
                                                                                                  
 block2c_activation (Activation  (None, 95, 95, 192)  0          ['block2c_bn[0][0]']             
 )                                                                                                
                                                                                                  
 block2c_se_squeeze (GlobalAver  (None, 192)         0           ['block2c_activation[0][0]']     
 agePooling2D)                                                                                    
                                                                                                  
 block2c_se_reshape (Reshape)   (None, 1, 1, 192)    0           ['block2c_se_squeeze[0][0]']     
                                                                                                  
 block2c_se_reduce (Conv2D)     (None, 1, 1, 8)      1544        ['block2c_se_reshape[0][0]']     
                                                                                                  
 block2c_se_expand (Conv2D)     (None, 1, 1, 192)    1728        ['block2c_se_reduce[0][0]']      
                                                                                                  
 block2c_se_excite (Multiply)   (None, 95, 95, 192)  0           ['block2c_activation[0][0]',     
                                                                  'block2c_se_expand[0][0]']      
                                                                                                  
 block2c_project_conv (Conv2D)  (None, 95, 95, 32)   6144        ['block2c_se_excite[0][0]']      
                                                                                                  
 block2c_project_bn (BatchNorma  (None, 95, 95, 32)  128         ['block2c_project_conv[0][0]']   
 lization)                                                                                        
                                                                                                  
 block2c_drop (Dropout)         (None, 95, 95, 32)   0           ['block2c_project_bn[0][0]']     
                                                                                                  
 block2c_add (Add)              (None, 95, 95, 32)   0           ['block2c_drop[0][0]',           
                                                                  'block2b_add[0][0]']            
                                                                                                  
 block2d_expand_conv (Conv2D)   (None, 95, 95, 192)  6144        ['block2c_add[0][0]']            
                                                                                                  
 block2d_expand_bn (BatchNormal  (None, 95, 95, 192)  768        ['block2d_expand_conv[0][0]']    
 ization)                                                                                         
                                                                                                  
 block2d_expand_activation (Act  (None, 95, 95, 192)  0          ['block2d_expand_bn[0][0]']      
 ivation)                                                                                         
                                                                                                  
 block2d_dwconv (DepthwiseConv2  (None, 95, 95, 192)  1728       ['block2d_expand_activation[0][0]
 D)                                                              ']                               
                                                                                                  
 block2d_bn (BatchNormalization  (None, 95, 95, 192)  768        ['block2d_dwconv[0][0]']         
 )                                                                                                
                                                                                                  
 block2d_activation (Activation  (None, 95, 95, 192)  0          ['block2d_bn[0][0]']             
 )                                                                                                
                                                                                                  
 block2d_se_squeeze (GlobalAver  (None, 192)         0           ['block2d_activation[0][0]']     
 agePooling2D)                                                                                    
                                                                                                  
 block2d_se_reshape (Reshape)   (None, 1, 1, 192)    0           ['block2d_se_squeeze[0][0]']     
                                                                                                  
 block2d_se_reduce (Conv2D)     (None, 1, 1, 8)      1544        ['block2d_se_reshape[0][0]']     
                                                                                                  
 block2d_se_expand (Conv2D)     (None, 1, 1, 192)    1728        ['block2d_se_reduce[0][0]']      
                                                                                                  
 block2d_se_excite (Multiply)   (None, 95, 95, 192)  0           ['block2d_activation[0][0]',     
                                                                  'block2d_se_expand[0][0]']      
                                                                                                  
 block2d_project_conv (Conv2D)  (None, 95, 95, 32)   6144        ['block2d_se_excite[0][0]']      
                                                                                                  
 block2d_project_bn (BatchNorma  (None, 95, 95, 32)  128         ['block2d_project_conv[0][0]']   
 lization)                                                                                        
                                                                                                  
 block2d_drop (Dropout)         (None, 95, 95, 32)   0           ['block2d_project_bn[0][0]']     
                                                                                                  
 block2d_add (Add)              (None, 95, 95, 32)   0           ['block2d_drop[0][0]',           
                                                                  'block2c_add[0][0]']            
                                                                                                  
 block3a_expand_conv (Conv2D)   (None, 95, 95, 192)  6144        ['block2d_add[0][0]']            
                                                                                                  
 block3a_expand_bn (BatchNormal  (None, 95, 95, 192)  768        ['block3a_expand_conv[0][0]']    
 ization)                                                                                         
                                                                                                  
 block3a_expand_activation (Act  (None, 95, 95, 192)  0          ['block3a_expand_bn[0][0]']      
 ivation)                                                                                         
                                                                                                  
 block3a_dwconv_pad (ZeroPaddin  (None, 99, 99, 192)  0          ['block3a_expand_activation[0][0]
 g2D)                                                            ']                               
                                                                                                  
 block3a_dwconv (DepthwiseConv2  (None, 48, 48, 192)  4800       ['block3a_dwconv_pad[0][0]']     
 D)                                                                                               
                                                                                                  
 block3a_bn (BatchNormalization  (None, 48, 48, 192)  768        ['block3a_dwconv[0][0]']         
 )                                                                                                
                                                                                                  
 block3a_activation (Activation  (None, 48, 48, 192)  0          ['block3a_bn[0][0]']             
 )                                                                                                
                                                                                                  
 block3a_se_squeeze (GlobalAver  (None, 192)         0           ['block3a_activation[0][0]']     
 agePooling2D)                                                                                    
                                                                                                  
 block3a_se_reshape (Reshape)   (None, 1, 1, 192)    0           ['block3a_se_squeeze[0][0]']     
                                                                                                  
 block3a_se_reduce (Conv2D)     (None, 1, 1, 8)      1544        ['block3a_se_reshape[0][0]']     
                                                                                                  
 block3a_se_expand (Conv2D)     (None, 1, 1, 192)    1728        ['block3a_se_reduce[0][0]']      
                                                                                                  
 block3a_se_excite (Multiply)   (None, 48, 48, 192)  0           ['block3a_activation[0][0]',     
                                                                  'block3a_se_expand[0][0]']      
                                                                                                  
 block3a_project_conv (Conv2D)  (None, 48, 48, 56)   10752       ['block3a_se_excite[0][0]']      
                                                                                                  
 block3a_project_bn (BatchNorma  (None, 48, 48, 56)  224         ['block3a_project_conv[0][0]']   
 lization)                                                                                        
                                                                                                  
 block3b_expand_conv (Conv2D)   (None, 48, 48, 336)  18816       ['block3a_project_bn[0][0]']     
                                                                                                  
 block3b_expand_bn (BatchNormal  (None, 48, 48, 336)  1344       ['block3b_expand_conv[0][0]']    
 ization)                                                                                         
                                                                                                  
 block3b_expand_activation (Act  (None, 48, 48, 336)  0          ['block3b_expand_bn[0][0]']      
 ivation)                                                                                         
                                                                                                  
 block3b_dwconv (DepthwiseConv2  (None, 48, 48, 336)  8400       ['block3b_expand_activation[0][0]
 D)                                                              ']                               
                                                                                                  
 block3b_bn (BatchNormalization  (None, 48, 48, 336)  1344       ['block3b_dwconv[0][0]']         
 )                                                                                                
                                                                                                  
 block3b_activation (Activation  (None, 48, 48, 336)  0          ['block3b_bn[0][0]']             
 )                                                                                                
                                                                                                  
 block3b_se_squeeze (GlobalAver  (None, 336)         0           ['block3b_activation[0][0]']     
 agePooling2D)                                                                                    
                                                                                                  
 block3b_se_reshape (Reshape)   (None, 1, 1, 336)    0           ['block3b_se_squeeze[0][0]']     
                                                                                                  
 block3b_se_reduce (Conv2D)     (None, 1, 1, 14)     4718        ['block3b_se_reshape[0][0]']     
                                                                                                  
 block3b_se_expand (Conv2D)     (None, 1, 1, 336)    5040        ['block3b_se_reduce[0][0]']      
                                                                                                  
 block3b_se_excite (Multiply)   (None, 48, 48, 336)  0           ['block3b_activation[0][0]',     
                                                                  'block3b_se_expand[0][0]']      
                                                                                                  
 block3b_project_conv (Conv2D)  (None, 48, 48, 56)   18816       ['block3b_se_excite[0][0]']      
                                                                                                  
 block3b_project_bn (BatchNorma  (None, 48, 48, 56)  224         ['block3b_project_conv[0][0]']   
 lization)                                                                                        
                                                                                                  
 block3b_drop (Dropout)         (None, 48, 48, 56)   0           ['block3b_project_bn[0][0]']     
                                                                                                  
 block3b_add (Add)              (None, 48, 48, 56)   0           ['block3b_drop[0][0]',           
                                                                  'block3a_project_bn[0][0]']     
                                                                                                  
 block3c_expand_conv (Conv2D)   (None, 48, 48, 336)  18816       ['block3b_add[0][0]']            
                                                                                                  
 block3c_expand_bn (BatchNormal  (None, 48, 48, 336)  1344       ['block3c_expand_conv[0][0]']    
 ization)                                                                                         
                                                                                                  
 block3c_expand_activation (Act  (None, 48, 48, 336)  0          ['block3c_expand_bn[0][0]']      
 ivation)                                                                                         
                                                                                                  
 block3c_dwconv (DepthwiseConv2  (None, 48, 48, 336)  8400       ['block3c_expand_activation[0][0]
 D)                                                              ']                               
                                                                                                  
 block3c_bn (BatchNormalization  (None, 48, 48, 336)  1344       ['block3c_dwconv[0][0]']         
 )                                                                                                
                                                                                                  
 block3c_activation (Activation  (None, 48, 48, 336)  0          ['block3c_bn[0][0]']             
 )                                                                                                
                                                                                                  
 block3c_se_squeeze (GlobalAver  (None, 336)         0           ['block3c_activation[0][0]']     
 agePooling2D)                                                                                    
                                                                                                  
 block3c_se_reshape (Reshape)   (None, 1, 1, 336)    0           ['block3c_se_squeeze[0][0]']     
                                                                                                  
 block3c_se_reduce (Conv2D)     (None, 1, 1, 14)     4718        ['block3c_se_reshape[0][0]']     
                                                                                                  
 block3c_se_expand (Conv2D)     (None, 1, 1, 336)    5040        ['block3c_se_reduce[0][0]']      
                                                                                                  
 block3c_se_excite (Multiply)   (None, 48, 48, 336)  0           ['block3c_activation[0][0]',     
                                                                  'block3c_se_expand[0][0]']      
                                                                                                  
 block3c_project_conv (Conv2D)  (None, 48, 48, 56)   18816       ['block3c_se_excite[0][0]']      
                                                                                                  
 block3c_project_bn (BatchNorma  (None, 48, 48, 56)  224         ['block3c_project_conv[0][0]']   
 lization)                                                                                        
                                                                                                  
 block3c_drop (Dropout)         (None, 48, 48, 56)   0           ['block3c_project_bn[0][0]']     
                                                                                                  
 block3c_add (Add)              (None, 48, 48, 56)   0           ['block3c_drop[0][0]',           
                                                                  'block3b_add[0][0]']            
                                                                                                  
 block3d_expand_conv (Conv2D)   (None, 48, 48, 336)  18816       ['block3c_add[0][0]']            
                                                                                                  
 block3d_expand_bn (BatchNormal  (None, 48, 48, 336)  1344       ['block3d_expand_conv[0][0]']    
 ization)                                                                                         
                                                                                                  
 block3d_expand_activation (Act  (None, 48, 48, 336)  0          ['block3d_expand_bn[0][0]']      
 ivation)                                                                                         
                                                                                                  
 block3d_dwconv (DepthwiseConv2  (None, 48, 48, 336)  8400       ['block3d_expand_activation[0][0]
 D)                                                              ']                               
                                                                                                  
 block3d_bn (BatchNormalization  (None, 48, 48, 336)  1344       ['block3d_dwconv[0][0]']         
 )                                                                                                
                                                                                                  
 block3d_activation (Activation  (None, 48, 48, 336)  0          ['block3d_bn[0][0]']             
 )                                                                                                
                                                                                                  
 block3d_se_squeeze (GlobalAver  (None, 336)         0           ['block3d_activation[0][0]']     
 agePooling2D)                                                                                    
                                                                                                  
 block3d_se_reshape (Reshape)   (None, 1, 1, 336)    0           ['block3d_se_squeeze[0][0]']     
                                                                                                  
 block3d_se_reduce (Conv2D)     (None, 1, 1, 14)     4718        ['block3d_se_reshape[0][0]']     
                                                                                                  
 block3d_se_expand (Conv2D)     (None, 1, 1, 336)    5040        ['block3d_se_reduce[0][0]']      
                                                                                                  
 block3d_se_excite (Multiply)   (None, 48, 48, 336)  0           ['block3d_activation[0][0]',     
                                                                  'block3d_se_expand[0][0]']      
                                                                                                  
 block3d_project_conv (Conv2D)  (None, 48, 48, 56)   18816       ['block3d_se_excite[0][0]']      
                                                                                                  
 block3d_project_bn (BatchNorma  (None, 48, 48, 56)  224         ['block3d_project_conv[0][0]']   
 lization)                                                                                        
                                                                                                  
 block3d_drop (Dropout)         (None, 48, 48, 56)   0           ['block3d_project_bn[0][0]']     
                                                                                                  
 block3d_add (Add)              (None, 48, 48, 56)   0           ['block3d_drop[0][0]',           
                                                                  'block3c_add[0][0]']            
                                                                                                  
 block4a_expand_conv (Conv2D)   (None, 48, 48, 336)  18816       ['block3d_add[0][0]']            
                                                                                                  
 block4a_expand_bn (BatchNormal  (None, 48, 48, 336)  1344       ['block4a_expand_conv[0][0]']    
 ization)                                                                                         
                                                                                                  
 block4a_expand_activation (Act  (None, 48, 48, 336)  0          ['block4a_expand_bn[0][0]']      
 ivation)                                                                                         
                                                                                                  
 block4a_dwconv_pad (ZeroPaddin  (None, 49, 49, 336)  0          ['block4a_expand_activation[0][0]
 g2D)                                                            ']                               
                                                                                                  
 block4a_dwconv (DepthwiseConv2  (None, 24, 24, 336)  3024       ['block4a_dwconv_pad[0][0]']     
 D)                                                                                               
                                                                                                  
 block4a_bn (BatchNormalization  (None, 24, 24, 336)  1344       ['block4a_dwconv[0][0]']         
 )                                                                                                
                                                                                                  
 block4a_activation (Activation  (None, 24, 24, 336)  0          ['block4a_bn[0][0]']             
 )                                                                                                
                                                                                                  
 block4a_se_squeeze (GlobalAver  (None, 336)         0           ['block4a_activation[0][0]']     
 agePooling2D)                                                                                    
                                                                                                  
 block4a_se_reshape (Reshape)   (None, 1, 1, 336)    0           ['block4a_se_squeeze[0][0]']     
                                                                                                  
 block4a_se_reduce (Conv2D)     (None, 1, 1, 14)     4718        ['block4a_se_reshape[0][0]']     
                                                                                                  
 block4a_se_expand (Conv2D)     (None, 1, 1, 336)    5040        ['block4a_se_reduce[0][0]']      
                                                                                                  
 block4a_se_excite (Multiply)   (None, 24, 24, 336)  0           ['block4a_activation[0][0]',     
                                                                  'block4a_se_expand[0][0]']      
                                                                                                  
 block4a_project_conv (Conv2D)  (None, 24, 24, 112)  37632       ['block4a_se_excite[0][0]']      
                                                                                                  
 block4a_project_bn (BatchNorma  (None, 24, 24, 112)  448        ['block4a_project_conv[0][0]']   
 lization)                                                                                        
                                                                                                  
 block4b_expand_conv (Conv2D)   (None, 24, 24, 672)  75264       ['block4a_project_bn[0][0]']     
                                                                                                  
 block4b_expand_bn (BatchNormal  (None, 24, 24, 672)  2688       ['block4b_expand_conv[0][0]']    
 ization)                                                                                         
                                                                                                  
 block4b_expand_activation (Act  (None, 24, 24, 672)  0          ['block4b_expand_bn[0][0]']      
 ivation)                                                                                         
                                                                                                  
 block4b_dwconv (DepthwiseConv2  (None, 24, 24, 672)  6048       ['block4b_expand_activation[0][0]
 D)                                                              ']                               
                                                                                                  
 block4b_bn (BatchNormalization  (None, 24, 24, 672)  2688       ['block4b_dwconv[0][0]']         
 )                                                                                                
                                                                                                  
 block4b_activation (Activation  (None, 24, 24, 672)  0          ['block4b_bn[0][0]']             
 )                                                                                                
                                                                                                  
 block4b_se_squeeze (GlobalAver  (None, 672)         0           ['block4b_activation[0][0]']     
 agePooling2D)                                                                                    
                                                                                                  
 block4b_se_reshape (Reshape)   (None, 1, 1, 672)    0           ['block4b_se_squeeze[0][0]']     
                                                                                                  
 block4b_se_reduce (Conv2D)     (None, 1, 1, 28)     18844       ['block4b_se_reshape[0][0]']     
                                                                                                  
 block4b_se_expand (Conv2D)     (None, 1, 1, 672)    19488       ['block4b_se_reduce[0][0]']      
                                                                                                  
 block4b_se_excite (Multiply)   (None, 24, 24, 672)  0           ['block4b_activation[0][0]',     
                                                                  'block4b_se_expand[0][0]']      
                                                                                                  
 block4b_project_conv (Conv2D)  (None, 24, 24, 112)  75264       ['block4b_se_excite[0][0]']      
                                                                                                  
 block4b_project_bn (BatchNorma  (None, 24, 24, 112)  448        ['block4b_project_conv[0][0]']   
 lization)                                                                                        
                                                                                                  
 block4b_drop (Dropout)         (None, 24, 24, 112)  0           ['block4b_project_bn[0][0]']     
                                                                                                  
 block4b_add (Add)              (None, 24, 24, 112)  0           ['block4b_drop[0][0]',           
                                                                  'block4a_project_bn[0][0]']     
                                                                                                  
 block4c_expand_conv (Conv2D)   (None, 24, 24, 672)  75264       ['block4b_add[0][0]']            
                                                                                                  
 block4c_expand_bn (BatchNormal  (None, 24, 24, 672)  2688       ['block4c_expand_conv[0][0]']    
 ization)                                                                                         
                                                                                                  
 block4c_expand_activation (Act  (None, 24, 24, 672)  0          ['block4c_expand_bn[0][0]']      
 ivation)                                                                                         
                                                                                                  
 block4c_dwconv (DepthwiseConv2  (None, 24, 24, 672)  6048       ['block4c_expand_activation[0][0]
 D)                                                              ']                               
                                                                                                  
 block4c_bn (BatchNormalization  (None, 24, 24, 672)  2688       ['block4c_dwconv[0][0]']         
 )                                                                                                
                                                                                                  
 block4c_activation (Activation  (None, 24, 24, 672)  0          ['block4c_bn[0][0]']             
 )                                                                                                
                                                                                                  
 block4c_se_squeeze (GlobalAver  (None, 672)         0           ['block4c_activation[0][0]']     
 agePooling2D)                                                                                    
                                                                                                  
 block4c_se_reshape (Reshape)   (None, 1, 1, 672)    0           ['block4c_se_squeeze[0][0]']     
                                                                                                  
 block4c_se_reduce (Conv2D)     (None, 1, 1, 28)     18844       ['block4c_se_reshape[0][0]']     
                                                                                                  
 block4c_se_expand (Conv2D)     (None, 1, 1, 672)    19488       ['block4c_se_reduce[0][0]']      
                                                                                                  
 block4c_se_excite (Multiply)   (None, 24, 24, 672)  0           ['block4c_activation[0][0]',     
                                                                  'block4c_se_expand[0][0]']      
                                                                                                  
 block4c_project_conv (Conv2D)  (None, 24, 24, 112)  75264       ['block4c_se_excite[0][0]']      
                                                                                                  
 block4c_project_bn (BatchNorma  (None, 24, 24, 112)  448        ['block4c_project_conv[0][0]']   
 lization)                                                                                        
                                                                                                  
 block4c_drop (Dropout)         (None, 24, 24, 112)  0           ['block4c_project_bn[0][0]']     
                                                                                                  
 block4c_add (Add)              (None, 24, 24, 112)  0           ['block4c_drop[0][0]',           
                                                                  'block4b_add[0][0]']            
                                                                                                  
 block4d_expand_conv (Conv2D)   (None, 24, 24, 672)  75264       ['block4c_add[0][0]']            
                                                                                                  
 block4d_expand_bn (BatchNormal  (None, 24, 24, 672)  2688       ['block4d_expand_conv[0][0]']    
 ization)                                                                                         
                                                                                                  
 block4d_expand_activation (Act  (None, 24, 24, 672)  0          ['block4d_expand_bn[0][0]']      
 ivation)                                                                                         
                                                                                                  
 block4d_dwconv (DepthwiseConv2  (None, 24, 24, 672)  6048       ['block4d_expand_activation[0][0]
 D)                                                              ']                               
                                                                                                  
 block4d_bn (BatchNormalization  (None, 24, 24, 672)  2688       ['block4d_dwconv[0][0]']         
 )                                                                                                
                                                                                                  
 block4d_activation (Activation  (None, 24, 24, 672)  0          ['block4d_bn[0][0]']             
 )                                                                                                
                                                                                                  
 block4d_se_squeeze (GlobalAver  (None, 672)         0           ['block4d_activation[0][0]']     
 agePooling2D)                                                                                    
                                                                                                  
 block4d_se_reshape (Reshape)   (None, 1, 1, 672)    0           ['block4d_se_squeeze[0][0]']     
                                                                                                  
 block4d_se_reduce (Conv2D)     (None, 1, 1, 28)     18844       ['block4d_se_reshape[0][0]']     
                                                                                                  
 block4d_se_expand (Conv2D)     (None, 1, 1, 672)    19488       ['block4d_se_reduce[0][0]']      
                                                                                                  
 block4d_se_excite (Multiply)   (None, 24, 24, 672)  0           ['block4d_activation[0][0]',     
                                                                  'block4d_se_expand[0][0]']      
                                                                                                  
 block4d_project_conv (Conv2D)  (None, 24, 24, 112)  75264       ['block4d_se_excite[0][0]']      
                                                                                                  
 block4d_project_bn (BatchNorma  (None, 24, 24, 112)  448        ['block4d_project_conv[0][0]']   
 lization)                                                                                        
                                                                                                  
 block4d_drop (Dropout)         (None, 24, 24, 112)  0           ['block4d_project_bn[0][0]']     
                                                                                                  
 block4d_add (Add)              (None, 24, 24, 112)  0           ['block4d_drop[0][0]',           
                                                                  'block4c_add[0][0]']            
                                                                                                  
 block4e_expand_conv (Conv2D)   (None, 24, 24, 672)  75264       ['block4d_add[0][0]']            
                                                                                                  
 block4e_expand_bn (BatchNormal  (None, 24, 24, 672)  2688       ['block4e_expand_conv[0][0]']    
 ization)                                                                                         
                                                                                                  
 block4e_expand_activation (Act  (None, 24, 24, 672)  0          ['block4e_expand_bn[0][0]']      
 ivation)                                                                                         
                                                                                                  
 block4e_dwconv (DepthwiseConv2  (None, 24, 24, 672)  6048       ['block4e_expand_activation[0][0]
 D)                                                              ']                               
                                                                                                  
 block4e_bn (BatchNormalization  (None, 24, 24, 672)  2688       ['block4e_dwconv[0][0]']         
 )                                                                                                
                                                                                                  
 block4e_activation (Activation  (None, 24, 24, 672)  0          ['block4e_bn[0][0]']             
 )                                                                                                
                                                                                                  
 block4e_se_squeeze (GlobalAver  (None, 672)         0           ['block4e_activation[0][0]']     
 agePooling2D)                                                                                    
                                                                                                  
 block4e_se_reshape (Reshape)   (None, 1, 1, 672)    0           ['block4e_se_squeeze[0][0]']     
                                                                                                  
 block4e_se_reduce (Conv2D)     (None, 1, 1, 28)     18844       ['block4e_se_reshape[0][0]']     
                                                                                                  
 block4e_se_expand (Conv2D)     (None, 1, 1, 672)    19488       ['block4e_se_reduce[0][0]']      
                                                                                                  
 block4e_se_excite (Multiply)   (None, 24, 24, 672)  0           ['block4e_activation[0][0]',     
                                                                  'block4e_se_expand[0][0]']      
                                                                                                  
 block4e_project_conv (Conv2D)  (None, 24, 24, 112)  75264       ['block4e_se_excite[0][0]']      
                                                                                                  
 block4e_project_bn (BatchNorma  (None, 24, 24, 112)  448        ['block4e_project_conv[0][0]']   
 lization)                                                                                        
                                                                                                  
 block4e_drop (Dropout)         (None, 24, 24, 112)  0           ['block4e_project_bn[0][0]']     
                                                                                                  
 block4e_add (Add)              (None, 24, 24, 112)  0           ['block4e_drop[0][0]',           
                                                                  'block4d_add[0][0]']            
                                                                                                  
 block4f_expand_conv (Conv2D)   (None, 24, 24, 672)  75264       ['block4e_add[0][0]']            
                                                                                                  
 block4f_expand_bn (BatchNormal  (None, 24, 24, 672)  2688       ['block4f_expand_conv[0][0]']    
 ization)                                                                                         
                                                                                                  
 block4f_expand_activation (Act  (None, 24, 24, 672)  0          ['block4f_expand_bn[0][0]']      
 ivation)                                                                                         
                                                                                                  
 block4f_dwconv (DepthwiseConv2  (None, 24, 24, 672)  6048       ['block4f_expand_activation[0][0]
 D)                                                              ']                               
                                                                                                  
 block4f_bn (BatchNormalization  (None, 24, 24, 672)  2688       ['block4f_dwconv[0][0]']         
 )                                                                                                
                                                                                                  
 block4f_activation (Activation  (None, 24, 24, 672)  0          ['block4f_bn[0][0]']             
 )                                                                                                
                                                                                                  
 block4f_se_squeeze (GlobalAver  (None, 672)         0           ['block4f_activation[0][0]']     
 agePooling2D)                                                                                    
                                                                                                  
 block4f_se_reshape (Reshape)   (None, 1, 1, 672)    0           ['block4f_se_squeeze[0][0]']     
                                                                                                  
 block4f_se_reduce (Conv2D)     (None, 1, 1, 28)     18844       ['block4f_se_reshape[0][0]']     
                                                                                                  
 block4f_se_expand (Conv2D)     (None, 1, 1, 672)    19488       ['block4f_se_reduce[0][0]']      
                                                                                                  
 block4f_se_excite (Multiply)   (None, 24, 24, 672)  0           ['block4f_activation[0][0]',     
                                                                  'block4f_se_expand[0][0]']      
                                                                                                  
 block4f_project_conv (Conv2D)  (None, 24, 24, 112)  75264       ['block4f_se_excite[0][0]']      
                                                                                                  
 block4f_project_bn (BatchNorma  (None, 24, 24, 112)  448        ['block4f_project_conv[0][0]']   
 lization)                                                                                        
                                                                                                  
 block4f_drop (Dropout)         (None, 24, 24, 112)  0           ['block4f_project_bn[0][0]']     
                                                                                                  
 block4f_add (Add)              (None, 24, 24, 112)  0           ['block4f_drop[0][0]',           
                                                                  'block4e_add[0][0]']            
                                                                                                  
 block5a_expand_conv (Conv2D)   (None, 24, 24, 672)  75264       ['block4f_add[0][0]']            
                                                                                                  
 block5a_expand_bn (BatchNormal  (None, 24, 24, 672)  2688       ['block5a_expand_conv[0][0]']    
 ization)                                                                                         
                                                                                                  
 block5a_expand_activation (Act  (None, 24, 24, 672)  0          ['block5a_expand_bn[0][0]']      
 ivation)                                                                                         
                                                                                                  
 block5a_dwconv (DepthwiseConv2  (None, 24, 24, 672)  16800      ['block5a_expand_activation[0][0]
 D)                                                              ']                               
                                                                                                  
 block5a_bn (BatchNormalization  (None, 24, 24, 672)  2688       ['block5a_dwconv[0][0]']         
 )                                                                                                
                                                                                                  
 block5a_activation (Activation  (None, 24, 24, 672)  0          ['block5a_bn[0][0]']             
 )                                                                                                
                                                                                                  
 block5a_se_squeeze (GlobalAver  (None, 672)         0           ['block5a_activation[0][0]']     
 agePooling2D)                                                                                    
                                                                                                  
 block5a_se_reshape (Reshape)   (None, 1, 1, 672)    0           ['block5a_se_squeeze[0][0]']     
                                                                                                  
 block5a_se_reduce (Conv2D)     (None, 1, 1, 28)     18844       ['block5a_se_reshape[0][0]']     
                                                                                                  
 block5a_se_expand (Conv2D)     (None, 1, 1, 672)    19488       ['block5a_se_reduce[0][0]']      
                                                                                                  
 block5a_se_excite (Multiply)   (None, 24, 24, 672)  0           ['block5a_activation[0][0]',     
                                                                  'block5a_se_expand[0][0]']      
                                                                                                  
 block5a_project_conv (Conv2D)  (None, 24, 24, 160)  107520      ['block5a_se_excite[0][0]']      
                                                                                                  
 block5a_project_bn (BatchNorma  (None, 24, 24, 160)  640        ['block5a_project_conv[0][0]']   
 lization)                                                                                        
                                                                                                  
 block5b_expand_conv (Conv2D)   (None, 24, 24, 960)  153600      ['block5a_project_bn[0][0]']     
                                                                                                  
 block5b_expand_bn (BatchNormal  (None, 24, 24, 960)  3840       ['block5b_expand_conv[0][0]']    
 ization)                                                                                         
                                                                                                  
 block5b_expand_activation (Act  (None, 24, 24, 960)  0          ['block5b_expand_bn[0][0]']      
 ivation)                                                                                         
                                                                                                  
 block5b_dwconv (DepthwiseConv2  (None, 24, 24, 960)  24000      ['block5b_expand_activation[0][0]
 D)                                                              ']                               
                                                                                                  
 block5b_bn (BatchNormalization  (None, 24, 24, 960)  3840       ['block5b_dwconv[0][0]']         
 )                                                                                                
                                                                                                  
 block5b_activation (Activation  (None, 24, 24, 960)  0          ['block5b_bn[0][0]']             
 )                                                                                                
                                                                                                  
 block5b_se_squeeze (GlobalAver  (None, 960)         0           ['block5b_activation[0][0]']     
 agePooling2D)                                                                                    
                                                                                                  
 block5b_se_reshape (Reshape)   (None, 1, 1, 960)    0           ['block5b_se_squeeze[0][0]']     
                                                                                                  
 block5b_se_reduce (Conv2D)     (None, 1, 1, 40)     38440       ['block5b_se_reshape[0][0]']     
                                                                                                  
 block5b_se_expand (Conv2D)     (None, 1, 1, 960)    39360       ['block5b_se_reduce[0][0]']      
                                                                                                  
 block5b_se_excite (Multiply)   (None, 24, 24, 960)  0           ['block5b_activation[0][0]',     
                                                                  'block5b_se_expand[0][0]']      
                                                                                                  
 block5b_project_conv (Conv2D)  (None, 24, 24, 160)  153600      ['block5b_se_excite[0][0]']      
                                                                                                  
 block5b_project_bn (BatchNorma  (None, 24, 24, 160)  640        ['block5b_project_conv[0][0]']   
 lization)                                                                                        
                                                                                                  
 block5b_drop (Dropout)         (None, 24, 24, 160)  0           ['block5b_project_bn[0][0]']     
                                                                                                  
 block5b_add (Add)              (None, 24, 24, 160)  0           ['block5b_drop[0][0]',           
                                                                  'block5a_project_bn[0][0]']     
                                                                                                  
 block5c_expand_conv (Conv2D)   (None, 24, 24, 960)  153600      ['block5b_add[0][0]']            
                                                                                                  
 block5c_expand_bn (BatchNormal  (None, 24, 24, 960)  3840       ['block5c_expand_conv[0][0]']    
 ization)                                                                                         
                                                                                                  
 block5c_expand_activation (Act  (None, 24, 24, 960)  0          ['block5c_expand_bn[0][0]']      
 ivation)                                                                                         
                                                                                                  
 block5c_dwconv (DepthwiseConv2  (None, 24, 24, 960)  24000      ['block5c_expand_activation[0][0]
 D)                                                              ']                               
                                                                                                  
 block5c_bn (BatchNormalization  (None, 24, 24, 960)  3840       ['block5c_dwconv[0][0]']         
 )                                                                                                
                                                                                                  
 block5c_activation (Activation  (None, 24, 24, 960)  0          ['block5c_bn[0][0]']             
 )                                                                                                
                                                                                                  
 block5c_se_squeeze (GlobalAver  (None, 960)         0           ['block5c_activation[0][0]']     
 agePooling2D)                                                                                    
                                                                                                  
 block5c_se_reshape (Reshape)   (None, 1, 1, 960)    0           ['block5c_se_squeeze[0][0]']     
                                                                                                  
 block5c_se_reduce (Conv2D)     (None, 1, 1, 40)     38440       ['block5c_se_reshape[0][0]']     
                                                                                                  
 block5c_se_expand (Conv2D)     (None, 1, 1, 960)    39360       ['block5c_se_reduce[0][0]']      
                                                                                                  
 block5c_se_excite (Multiply)   (None, 24, 24, 960)  0           ['block5c_activation[0][0]',     
                                                                  'block5c_se_expand[0][0]']      
                                                                                                  
 block5c_project_conv (Conv2D)  (None, 24, 24, 160)  153600      ['block5c_se_excite[0][0]']      
                                                                                                  
 block5c_project_bn (BatchNorma  (None, 24, 24, 160)  640        ['block5c_project_conv[0][0]']   
 lization)                                                                                        
                                                                                                  
 block5c_drop (Dropout)         (None, 24, 24, 160)  0           ['block5c_project_bn[0][0]']     
                                                                                                  
 block5c_add (Add)              (None, 24, 24, 160)  0           ['block5c_drop[0][0]',           
                                                                  'block5b_add[0][0]']            
                                                                                                  
 block5d_expand_conv (Conv2D)   (None, 24, 24, 960)  153600      ['block5c_add[0][0]']            
                                                                                                  
 block5d_expand_bn (BatchNormal  (None, 24, 24, 960)  3840       ['block5d_expand_conv[0][0]']    
 ization)                                                                                         
                                                                                                  
 block5d_expand_activation (Act  (None, 24, 24, 960)  0          ['block5d_expand_bn[0][0]']      
 ivation)                                                                                         
                                                                                                  
 block5d_dwconv (DepthwiseConv2  (None, 24, 24, 960)  24000      ['block5d_expand_activation[0][0]
 D)                                                              ']                               
                                                                                                  
 block5d_bn (BatchNormalization  (None, 24, 24, 960)  3840       ['block5d_dwconv[0][0]']         
 )                                                                                                
                                                                                                  
 block5d_activation (Activation  (None, 24, 24, 960)  0          ['block5d_bn[0][0]']             
 )                                                                                                
                                                                                                  
 block5d_se_squeeze (GlobalAver  (None, 960)         0           ['block5d_activation[0][0]']     
 agePooling2D)                                                                                    
                                                                                                  
 block5d_se_reshape (Reshape)   (None, 1, 1, 960)    0           ['block5d_se_squeeze[0][0]']     
                                                                                                  
 block5d_se_reduce (Conv2D)     (None, 1, 1, 40)     38440       ['block5d_se_reshape[0][0]']     
                                                                                                  
 block5d_se_expand (Conv2D)     (None, 1, 1, 960)    39360       ['block5d_se_reduce[0][0]']      
                                                                                                  
 block5d_se_excite (Multiply)   (None, 24, 24, 960)  0           ['block5d_activation[0][0]',     
                                                                  'block5d_se_expand[0][0]']      
                                                                                                  
 block5d_project_conv (Conv2D)  (None, 24, 24, 160)  153600      ['block5d_se_excite[0][0]']      
                                                                                                  
 block5d_project_bn (BatchNorma  (None, 24, 24, 160)  640        ['block5d_project_conv[0][0]']   
 lization)                                                                                        
                                                                                                  
 block5d_drop (Dropout)         (None, 24, 24, 160)  0           ['block5d_project_bn[0][0]']     
                                                                                                  
 block5d_add (Add)              (None, 24, 24, 160)  0           ['block5d_drop[0][0]',           
                                                                  'block5c_add[0][0]']            
                                                                                                  
 block5e_expand_conv (Conv2D)   (None, 24, 24, 960)  153600      ['block5d_add[0][0]']            
                                                                                                  
 block5e_expand_bn (BatchNormal  (None, 24, 24, 960)  3840       ['block5e_expand_conv[0][0]']    
 ization)                                                                                         
                                                                                                  
 block5e_expand_activation (Act  (None, 24, 24, 960)  0          ['block5e_expand_bn[0][0]']      
 ivation)                                                                                         
                                                                                                  
 block5e_dwconv (DepthwiseConv2  (None, 24, 24, 960)  24000      ['block5e_expand_activation[0][0]
 D)                                                              ']                               
                                                                                                  
 block5e_bn (BatchNormalization  (None, 24, 24, 960)  3840       ['block5e_dwconv[0][0]']         
 )                                                                                                
                                                                                                  
 block5e_activation (Activation  (None, 24, 24, 960)  0          ['block5e_bn[0][0]']             
 )                                                                                                
                                                                                                  
 block5e_se_squeeze (GlobalAver  (None, 960)         0           ['block5e_activation[0][0]']     
 agePooling2D)                                                                                    
                                                                                                  
 block5e_se_reshape (Reshape)   (None, 1, 1, 960)    0           ['block5e_se_squeeze[0][0]']     
                                                                                                  
 block5e_se_reduce (Conv2D)     (None, 1, 1, 40)     38440       ['block5e_se_reshape[0][0]']     
                                                                                                  
 block5e_se_expand (Conv2D)     (None, 1, 1, 960)    39360       ['block5e_se_reduce[0][0]']      
                                                                                                  
 block5e_se_excite (Multiply)   (None, 24, 24, 960)  0           ['block5e_activation[0][0]',     
                                                                  'block5e_se_expand[0][0]']      
                                                                                                  
 block5e_project_conv (Conv2D)  (None, 24, 24, 160)  153600      ['block5e_se_excite[0][0]']      
                                                                                                  
 block5e_project_bn (BatchNorma  (None, 24, 24, 160)  640        ['block5e_project_conv[0][0]']   
 lization)                                                                                        
                                                                                                  
 block5e_drop (Dropout)         (None, 24, 24, 160)  0           ['block5e_project_bn[0][0]']     
                                                                                                  
 block5e_add (Add)              (None, 24, 24, 160)  0           ['block5e_drop[0][0]',           
                                                                  'block5d_add[0][0]']            
                                                                                                  
 block5f_expand_conv (Conv2D)   (None, 24, 24, 960)  153600      ['block5e_add[0][0]']            
                                                                                                  
 block5f_expand_bn (BatchNormal  (None, 24, 24, 960)  3840       ['block5f_expand_conv[0][0]']    
 ization)                                                                                         
                                                                                                  
 block5f_expand_activation (Act  (None, 24, 24, 960)  0          ['block5f_expand_bn[0][0]']      
 ivation)                                                                                         
                                                                                                  
 block5f_dwconv (DepthwiseConv2  (None, 24, 24, 960)  24000      ['block5f_expand_activation[0][0]
 D)                                                              ']                               
                                                                                                  
 block5f_bn (BatchNormalization  (None, 24, 24, 960)  3840       ['block5f_dwconv[0][0]']         
 )                                                                                                
                                                                                                  
 block5f_activation (Activation  (None, 24, 24, 960)  0          ['block5f_bn[0][0]']             
 )                                                                                                
                                                                                                  
 block5f_se_squeeze (GlobalAver  (None, 960)         0           ['block5f_activation[0][0]']     
 agePooling2D)                                                                                    
                                                                                                  
 block5f_se_reshape (Reshape)   (None, 1, 1, 960)    0           ['block5f_se_squeeze[0][0]']     
                                                                                                  
 block5f_se_reduce (Conv2D)     (None, 1, 1, 40)     38440       ['block5f_se_reshape[0][0]']     
                                                                                                  
 block5f_se_expand (Conv2D)     (None, 1, 1, 960)    39360       ['block5f_se_reduce[0][0]']      
                                                                                                  
 block5f_se_excite (Multiply)   (None, 24, 24, 960)  0           ['block5f_activation[0][0]',     
                                                                  'block5f_se_expand[0][0]']      
                                                                                                  
 block5f_project_conv (Conv2D)  (None, 24, 24, 160)  153600      ['block5f_se_excite[0][0]']      
                                                                                                  
 block5f_project_bn (BatchNorma  (None, 24, 24, 160)  640        ['block5f_project_conv[0][0]']   
 lization)                                                                                        
                                                                                                  
 block5f_drop (Dropout)         (None, 24, 24, 160)  0           ['block5f_project_bn[0][0]']     
                                                                                                  
 block5f_add (Add)              (None, 24, 24, 160)  0           ['block5f_drop[0][0]',           
                                                                  'block5e_add[0][0]']            
                                                                                                  
 block6a_expand_conv (Conv2D)   (None, 24, 24, 960)  153600      ['block5f_add[0][0]']            
                                                                                                  
 block6a_expand_bn (BatchNormal  (None, 24, 24, 960)  3840       ['block6a_expand_conv[0][0]']    
 ization)                                                                                         
                                                                                                  
 block6a_expand_activation (Act  (None, 24, 24, 960)  0          ['block6a_expand_bn[0][0]']      
 ivation)                                                                                         
                                                                                                  
 block6a_dwconv_pad (ZeroPaddin  (None, 27, 27, 960)  0          ['block6a_expand_activation[0][0]
 g2D)                                                            ']                               
                                                                                                  
 block6a_dwconv (DepthwiseConv2  (None, 12, 12, 960)  24000      ['block6a_dwconv_pad[0][0]']     
 D)                                                                                               
                                                                                                  
 block6a_bn (BatchNormalization  (None, 12, 12, 960)  3840       ['block6a_dwconv[0][0]']         
 )                                                                                                
                                                                                                  
 block6a_activation (Activation  (None, 12, 12, 960)  0          ['block6a_bn[0][0]']             
 )                                                                                                
                                                                                                  
 block6a_se_squeeze (GlobalAver  (None, 960)         0           ['block6a_activation[0][0]']     
 agePooling2D)                                                                                    
                                                                                                  
 block6a_se_reshape (Reshape)   (None, 1, 1, 960)    0           ['block6a_se_squeeze[0][0]']     
                                                                                                  
 block6a_se_reduce (Conv2D)     (None, 1, 1, 40)     38440       ['block6a_se_reshape[0][0]']     
                                                                                                  
 block6a_se_expand (Conv2D)     (None, 1, 1, 960)    39360       ['block6a_se_reduce[0][0]']      
                                                                                                  
 block6a_se_excite (Multiply)   (None, 12, 12, 960)  0           ['block6a_activation[0][0]',     
                                                                  'block6a_se_expand[0][0]']      
                                                                                                  
 block6a_project_conv (Conv2D)  (None, 12, 12, 272)  261120      ['block6a_se_excite[0][0]']      
                                                                                                  
 block6a_project_bn (BatchNorma  (None, 12, 12, 272)  1088       ['block6a_project_conv[0][0]']   
 lization)                                                                                        
                                                                                                  
 block6b_expand_conv (Conv2D)   (None, 12, 12, 1632  443904      ['block6a_project_bn[0][0]']     
                                )                                                                 
…
 block6b_bn (BatchNormalization  (None, 12, 12, 1632  6528       ['block6b_dwconv[0][0]']         
 )                              )                                                                 
                                                                                                  
 block6b_activation (Activation  (None, 12, 12, 1632  0          ['block6b_bn[0][0]']             
 )                              )                                                                 
                                                                                                  
 block6b_se_squeeze (GlobalAver  (None, 1632)        0           ['block6b_activation[0][0]']     
 agePooling2D)                                                                                    
                                                                                                  
 block6b_se_reshape (Reshape)   (None, 1, 1, 1632)   0           ['block6b_se_squeeze[0][0]']     
                                                                                                  
 block6b_se_reduce (Conv2D)     (None, 1, 1, 68)     111044      ['block6b_se_reshape[0][0]']     
                                                                                                  
 block6b_se_expand (Conv2D)     (None, 1, 1, 1632)   112608      ['block6b_se_reduce[0][0]']      
                                                                                                  
 block6b_se_excite (Multiply)   (None, 12, 12, 1632  0           ['block6b_activation[0][0]',     
                                )                                 'block6b_se_expand[0][0]']      
                                                                                                  
 block6b_project_conv (Conv2D)  (None, 12, 12, 272)  443904      ['block6b_se_excite[0][0]']      
                                                                                                  
 block6b_project_bn (BatchNorma  (None, 12, 12, 272)  1088       ['block6b_project_conv[0][0]']   
 lization)                                                                                        
                                                                                                  
 block6b_drop (Dropout)         (None, 12, 12, 272)  0           ['block6b_project_bn[0][0]']     
                                                                                                  
 block6b_add (Add)              (None, 12, 12, 272)  0           ['block6b_drop[0][0]',           
                                                                  'block6a_project_bn[0][0]']     
                                                                                                  
 block6c_expand_conv (Conv2D)   (None, 12, 12, 1632  443904      ['block6b_add[0][0]']            
                                )                                                                 
…
 block7a_bn (BatchNormalization  (None, 12, 12, 1632  6528       ['block7a_dwconv[0][0]']         
 )                              )                                                                 
                                                                                                  
 block7a_activation (Activation  (None, 12, 12, 1632  0          ['block7a_bn[0][0]']             
 )                              )                                                                 
                                                                                                  
 block7a_se_squeeze (GlobalAver  (None, 1632)        0           ['block7a_activation[0][0]']     
 agePooling2D)                                                                                    
                                                                                                  
 block7a_se_reshape (Reshape)   (None, 1, 1, 1632)   0           ['block7a_se_squeeze[0][0]']     
                                                                                                  
 block7a_se_reduce (Conv2D)     (None, 1, 1, 68)     111044      ['block7a_se_reshape[0][0]']     
                                                                                                  
 block7a_se_expand (Conv2D)     (None, 1, 1, 1632)   112608      ['block7a_se_reduce[0][0]']      
                                                                                                  
 block7a_se_excite (Multiply)   (None, 12, 12, 1632  0           ['block7a_activation[0][0]',     
                                )                                 'block7a_se_expand[0][0]']      
                                                                                                  
 block7a_project_conv (Conv2D)  (None, 12, 12, 448)  731136      ['block7a_se_excite[0][0]']      
                                                                                                  
 block7a_project_bn (BatchNorma  (None, 12, 12, 448)  1792       ['block7a_project_conv[0][0]']   
 lization)                                                                                        
                                                                                                  
 block7b_expand_conv (Conv2D)   (None, 12, 12, 2688  1204224     ['block7a_project_bn[0][0]']     
                                )                                                                 
…
 block7b_bn (BatchNormalization  (None, 12, 12, 2688  10752      ['block7b_dwconv[0][0]']         
 )                              )                                                                 
                                                                                                  
 block7b_activation (Activation  (None, 12, 12, 2688  0          ['block7b_bn[0][0]']             
 )                              )                                                                 
                                                                                                  
 block7b_se_squeeze (GlobalAver  (None, 2688)        0           ['block7b_activation[0][0]']     
 agePooling2D)                                                                                    
                                                                                                  
 block7b_se_reshape (Reshape)   (None, 1, 1, 2688)   0           ['block7b_se_squeeze[0][0]']     
                                                                                                  
 block7b_se_reduce (Conv2D)     (None, 1, 1, 112)    301168      ['block7b_se_reshape[0][0]']     
                                                                                                  
 block7b_se_expand (Conv2D)     (None, 1, 1, 2688)   303744      ['block7b_se_reduce[0][0]']      
                                                                                                  
 block7b_se_excite (Multiply)   (None, 12, 12, 2688  0           ['block7b_activation[0][0]',     
                                )                                 'block7b_se_expand[0][0]']      
                                                                                                  
 block7b_project_conv (Conv2D)  (None, 12, 12, 448)  1204224     ['block7b_se_excite[0][0]']      
                                                                                                  
 block7b_project_bn (BatchNorma  (None, 12, 12, 448)  1792       ['block7b_project_conv[0][0]']   
 lization)                                                                                        
                                                                                                  
 block7b_drop (Dropout)         (None, 12, 12, 448)  0           ['block7b_project_bn[0][0]']     
                                                                                                  
 block7b_add (Add)              (None, 12, 12, 448)  0           ['block7b_drop[0][0]',           
                                                                  'block7a_project_bn[0][0]']     
                                                                                                  
 top_conv (Conv2D)              (None, 12, 12, 1792  802816      ['block7b_add[0][0]']            
                                )                                                                 
…
 top_bn (BatchNormalization)    (None, 12, 12, 1792  7168        ['top_conv[0][0]']               
                                )                                                                 
                                                                                                  
 top_activation (Activation)    (None, 12, 12, 1792  0           ['top_bn[0][0]']                 
                                )                                                                 
                                                                                                  
 flatten (Flatten)              (None, 258048)       0           ['top_activation[0][0]']         
                                                                                                  
 lin1 (Dense)                   (None, 1024)         264242176   ['flatten[0][0]']                
                                                                                                  
 lin2 (Dense)                   (None, 2048)         2099200     ['lin1[0][0]']                   
                                                                                                  
 lin3 (Dense)                   (None, 1024)         2098176     ['lin2[0][0]']                   
                                                                                                  
 dropout (Dropout)              (None, 1024)         0           ['lin3[0][0]']                   
                                                                                                  
 output (Dense)                 (None, 2)            2050        ['dropout[0][0]']                
                                                                                                  
==================================================================================================
Total params: 286,115,425
Trainable params: 268,441,602
Non-trainable params: 17,673,823
__________________________________________________________________________________________________
